{"class_name": "Model", "keras_version": "1.2.2", "config": {"layers": [{"class_name": "InputLayer", "config": {"batch_input_shape": [null, 200], "input_dtype": "float32", "sparse": false, "name": "input_1"}, "inbound_nodes": [], "name": "input_1"}, {"class_name": "InputLayer", "config": {"batch_input_shape": [null, 200], "input_dtype": "float32", "sparse": false, "name": "input_2"}, "inbound_nodes": [], "name": "input_2"}, {"class_name": "Embedding", "config": {"trainable": true, "name": "embedding_1", "activity_regularizer": null, "W_constraint": null, "init": "uniform", "input_dtype": "int32", "mask_zero": true, "input_dim": 1501, "batch_input_shape": [null, 200], "W_regularizer": null, "dropout": 0.0, "output_dim": 128, "input_length": 200}, "inbound_nodes": [[["input_1", 0, 0]]], "name": "embedding_1"}, {"class_name": "Embedding", "config": {"trainable": true, "name": "embedding_2", "activity_regularizer": null, "W_constraint": null, "init": "uniform", "input_dtype": "int32", "mask_zero": true, "input_dim": 1501, "batch_input_shape": [null, 200], "W_regularizer": null, "dropout": 0.0, "output_dim": 128, "input_length": 200}, "inbound_nodes": [[["input_2", 0, 0]]], "name": "embedding_2"}, {"class_name": "Masking", "config": {"trainable": true, "mask_value": 0, "name": "masking_1"}, "inbound_nodes": [[["embedding_1", 0, 0]]], "name": "masking_1"}, {"class_name": "Masking", "config": {"trainable": true, "mask_value": 0, "name": "masking_2"}, "inbound_nodes": [[["embedding_2", 0, 0]]], "name": "masking_2"}, {"class_name": "Bidirectional", "config": {"merge_mode": "concat", "layer": {"class_name": "LSTM", "config": {"U_regularizer": null, "name": "lstm_1", "inner_activation": "hard_sigmoid", "go_backwards": false, "activation": "relu", "trainable": true, "unroll": false, "consume_less": "cpu", "stateful": false, "init": "glorot_uniform", "inner_init": "orthogonal", "dropout_U": 0.5, "dropout_W": 0.5, "input_dim": null, "return_sequences": false, "b_regularizer": null, "W_regularizer": null, "output_dim": 32, "forget_bias_init": "one", "input_length": null}}, "trainable": true, "name": "bidirectional_1"}, "inbound_nodes": [[["masking_1", 0, 0]]], "name": "bidirectional_1"}, {"class_name": "Bidirectional", "config": {"merge_mode": "concat", "layer": {"class_name": "LSTM", "config": {"U_regularizer": null, "name": "lstm_2", "inner_activation": "hard_sigmoid", "go_backwards": false, "activation": "relu", "trainable": true, "unroll": false, "consume_less": "cpu", "stateful": false, "init": "glorot_uniform", "inner_init": "orthogonal", "dropout_U": 0.5, "dropout_W": 0.5, "input_dim": null, "return_sequences": false, "b_regularizer": null, "W_regularizer": null, "output_dim": 32, "forget_bias_init": "one", "input_length": null}}, "trainable": true, "name": "bidirectional_2"}, "inbound_nodes": [[["masking_2", 0, 0]]], "name": "bidirectional_2"}, {"class_name": "Merge", "config": {"name": "merge_1", "concat_axis": -1, "mode_type": "raw", "dot_axes": [1, 1], "output_mask_type": "raw", "arguments": {}, "output_mask": null, "mode": "cos", "output_shape": null, "output_shape_type": "raw"}, "inbound_nodes": [[["bidirectional_1", 0, 0], ["bidirectional_2", 0, 0]]], "name": "merge_1"}], "input_layers": [["input_1", 0, 0], ["input_2", 0, 0]], "output_layers": [["merge_1", 0, 0]], "name": "model_1"}}