{"keras_version": "1.2.1", "config": [{"config": {"output_mask": null, "mode_type": "raw", "dot_axes": [1, 1], "concat_axis": -1, "arguments": {}, "output_shape": null, "name": "merge_3", "output_mask_type": "raw", "mode": "cos", "layers": [{"config": [{"config": {"output_mask": null, "mode_type": "raw", "dot_axes": -1, "arguments": {}, "output_shape": null, "name": "merge_1", "output_mask_type": "raw", "mode": "concat", "output_shape_type": "raw", "layers": [{"config": [{"config": {"name": "masking_1", "batch_input_shape": [null, 200, 50], "mask_value": 0, "input_dtype": "float32", "trainable": true}, "class_name": "Masking"}, {"config": {"input_dim": 50, "go_backwards": false, "inner_activation": "hard_sigmoid", "consume_less": "cpu", "name": "lstm_1", "dropout_W": 0.8, "activation": "tanh", "forget_bias_init": "one", "b_regularizer": null, "inner_init": "orthogonal", "dropout_U": 0.8, "stateful": false, "init": "glorot_uniform", "input_length": null, "batch_input_shape": [null, 200, 50], "trainable": true, "return_sequences": false, "U_regularizer": null, "W_regularizer": null, "unroll": false, "input_dtype": "float32", "output_dim": 32}, "class_name": "LSTM"}], "class_name": "Sequential"}, {"config": [{"config": {"name": "masking_2", "batch_input_shape": [null, 200, 50], "mask_value": 0, "input_dtype": "float32", "trainable": true}, "class_name": "Masking"}, {"config": {"input_dim": 50, "go_backwards": false, "inner_activation": "hard_sigmoid", "consume_less": "cpu", "name": "lstm_2", "dropout_W": 0.8, "activation": "tanh", "forget_bias_init": "one", "b_regularizer": null, "inner_init": "orthogonal", "dropout_U": 0.8, "stateful": false, "init": "glorot_uniform", "input_length": null, "batch_input_shape": [null, 200, 50], "trainable": true, "return_sequences": false, "U_regularizer": null, "W_regularizer": null, "unroll": false, "input_dtype": "float32", "output_dim": 32}, "class_name": "LSTM"}], "class_name": "Sequential"}], "concat_axis": -1}, "class_name": "Merge"}], "class_name": "Sequential"}, {"config": [{"config": {"output_mask": null, "mode_type": "raw", "dot_axes": -1, "arguments": {}, "output_shape": null, "name": "merge_2", "output_mask_type": "raw", "mode": "concat", "output_shape_type": "raw", "layers": [{"config": [{"config": {"name": "masking_3", "batch_input_shape": [null, 200, 50], "mask_value": 0, "input_dtype": "float32", "trainable": true}, "class_name": "Masking"}, {"config": {"input_dim": 50, "go_backwards": false, "inner_activation": "hard_sigmoid", "consume_less": "cpu", "name": "lstm_3", "dropout_W": 0.8, "activation": "tanh", "forget_bias_init": "one", "b_regularizer": null, "inner_init": "orthogonal", "dropout_U": 0.8, "stateful": false, "init": "glorot_uniform", "input_length": null, "batch_input_shape": [null, 200, 50], "trainable": true, "return_sequences": false, "U_regularizer": null, "W_regularizer": null, "unroll": false, "input_dtype": "float32", "output_dim": 32}, "class_name": "LSTM"}], "class_name": "Sequential"}, {"config": [{"config": {"name": "masking_4", "batch_input_shape": [null, 200, 50], "mask_value": 0, "input_dtype": "float32", "trainable": true}, "class_name": "Masking"}, {"config": {"input_dim": 50, "go_backwards": false, "inner_activation": "hard_sigmoid", "consume_less": "cpu", "name": "lstm_4", "dropout_W": 0.8, "activation": "tanh", "forget_bias_init": "one", "b_regularizer": null, "inner_init": "orthogonal", "dropout_U": 0.8, "stateful": false, "init": "glorot_uniform", "input_length": null, "batch_input_shape": [null, 200, 50], "trainable": true, "return_sequences": false, "U_regularizer": null, "W_regularizer": null, "unroll": false, "input_dtype": "float32", "output_dim": 32}, "class_name": "LSTM"}], "class_name": "Sequential"}], "concat_axis": -1}, "class_name": "Merge"}], "class_name": "Sequential"}], "output_shape_type": "raw"}, "class_name": "Merge"}], "class_name": "Sequential"}