{"config": {"layers": [{"config": {"sparse": false, "batch_input_shape": [null, 200], "input_dtype": "float32", "name": "input_1"}, "class_name": "InputLayer", "name": "input_1", "inbound_nodes": []}, {"config": {"sparse": false, "batch_input_shape": [null, 200], "input_dtype": "float32", "name": "input_2"}, "class_name": "InputLayer", "name": "input_2", "inbound_nodes": []}, {"config": {"sparse": false, "batch_input_shape": [null, 200], "input_dtype": "float32", "name": "input_3"}, "class_name": "InputLayer", "name": "input_3", "inbound_nodes": []}, {"config": {"sparse": false, "batch_input_shape": [null, 200], "input_dtype": "float32", "name": "input_4"}, "class_name": "InputLayer", "name": "input_4", "inbound_nodes": []}, {"config": {"W_constraint": null, "input_dim": 51, "output_dim": 64, "input_dtype": "int32", "activity_regularizer": null, "W_regularizer": null, "dropout": 0.0, "init": "uniform", "input_length": 200, "name": "embedding_1", "trainable": true, "batch_input_shape": [null, 200], "mask_zero": true}, "class_name": "Embedding", "name": "embedding_1", "inbound_nodes": [[["input_1", 0, 0]]]}, {"config": {"W_constraint": null, "input_dim": 51, "output_dim": 64, "input_dtype": "int32", "activity_regularizer": null, "W_regularizer": null, "dropout": 0.0, "init": "uniform", "input_length": 200, "name": "embedding_2", "trainable": true, "batch_input_shape": [null, 200], "mask_zero": true}, "class_name": "Embedding", "name": "embedding_2", "inbound_nodes": [[["input_2", 0, 0]]]}, {"config": {"W_constraint": null, "input_dim": 51, "output_dim": 64, "input_dtype": "int32", "activity_regularizer": null, "W_regularizer": null, "dropout": 0.0, "init": "uniform", "input_length": 200, "name": "embedding_3", "trainable": true, "batch_input_shape": [null, 200], "mask_zero": true}, "class_name": "Embedding", "name": "embedding_3", "inbound_nodes": [[["input_3", 0, 0]]]}, {"config": {"W_constraint": null, "input_dim": 51, "output_dim": 64, "input_dtype": "int32", "activity_regularizer": null, "W_regularizer": null, "dropout": 0.0, "init": "uniform", "input_length": 200, "name": "embedding_4", "trainable": true, "batch_input_shape": [null, 200], "mask_zero": true}, "class_name": "Embedding", "name": "embedding_4", "inbound_nodes": [[["input_4", 0, 0]]]}, {"config": {"name": "masking_1", "trainable": true, "mask_value": 0}, "class_name": "Masking", "name": "masking_1", "inbound_nodes": [[["embedding_1", 0, 0]]]}, {"config": {"name": "masking_2", "trainable": true, "mask_value": 0}, "class_name": "Masking", "name": "masking_2", "inbound_nodes": [[["embedding_2", 0, 0]]]}, {"config": {"name": "masking_3", "trainable": true, "mask_value": 0}, "class_name": "Masking", "name": "masking_3", "inbound_nodes": [[["embedding_3", 0, 0]]]}, {"config": {"name": "masking_4", "trainable": true, "mask_value": 0}, "class_name": "Masking", "name": "masking_4", "inbound_nodes": [[["embedding_4", 0, 0]]]}, {"config": {"input_dim": 64, "return_sequences": false, "dropout_W": 0.8, "activation": "tanh", "inner_activation": "hard_sigmoid", "output_dim": 32, "go_backwards": false, "U_regularizer": null, "input_length": null, "dropout_U": 0.8, "init": "glorot_uniform", "forget_bias_init": "one", "inner_init": "orthogonal", "W_regularizer": null, "stateful": false, "name": "lstm_1", "consume_less": "cpu", "trainable": true, "unroll": false, "b_regularizer": null}, "class_name": "LSTM", "name": "lstm_1", "inbound_nodes": [[["masking_1", 0, 0]]]}, {"config": {"input_dim": 64, "return_sequences": false, "dropout_W": 0.8, "activation": "tanh", "inner_activation": "hard_sigmoid", "output_dim": 32, "go_backwards": false, "U_regularizer": null, "input_length": null, "dropout_U": 0.8, "init": "glorot_uniform", "forget_bias_init": "one", "inner_init": "orthogonal", "W_regularizer": null, "stateful": false, "name": "lstm_2", "consume_less": "cpu", "trainable": true, "unroll": false, "b_regularizer": null}, "class_name": "LSTM", "name": "lstm_2", "inbound_nodes": [[["masking_2", 0, 0]]]}, {"config": {"input_dim": 64, "return_sequences": false, "dropout_W": 0.8, "activation": "tanh", "inner_activation": "hard_sigmoid", "output_dim": 32, "go_backwards": false, "U_regularizer": null, "input_length": null, "dropout_U": 0.8, "init": "glorot_uniform", "forget_bias_init": "one", "inner_init": "orthogonal", "W_regularizer": null, "stateful": false, "name": "lstm_3", "consume_less": "cpu", "trainable": true, "unroll": false, "b_regularizer": null}, "class_name": "LSTM", "name": "lstm_3", "inbound_nodes": [[["masking_3", 0, 0]]]}, {"config": {"input_dim": 64, "return_sequences": false, "dropout_W": 0.8, "activation": "tanh", "inner_activation": "hard_sigmoid", "output_dim": 32, "go_backwards": false, "U_regularizer": null, "input_length": null, "dropout_U": 0.8, "init": "glorot_uniform", "forget_bias_init": "one", "inner_init": "orthogonal", "W_regularizer": null, "stateful": false, "name": "lstm_4", "consume_less": "cpu", "trainable": true, "unroll": false, "b_regularizer": null}, "class_name": "LSTM", "name": "lstm_4", "inbound_nodes": [[["masking_4", 0, 0]]]}, {"config": {"mode": "concat", "dot_axes": -1, "output_shape": null, "concat_axis": -1, "name": "merge_1", "output_mask_type": "raw", "output_shape_type": "raw", "arguments": {}, "mode_type": "raw", "output_mask": null}, "class_name": "Merge", "name": "merge_1", "inbound_nodes": [[["lstm_1", 0, 0], ["lstm_2", 0, 0]]]}, {"config": {"mode": "concat", "dot_axes": -1, "output_shape": null, "concat_axis": -1, "name": "merge_2", "output_mask_type": "raw", "output_shape_type": "raw", "arguments": {}, "mode_type": "raw", "output_mask": null}, "class_name": "Merge", "name": "merge_2", "inbound_nodes": [[["lstm_3", 0, 0], ["lstm_4", 0, 0]]]}, {"config": {"mode": "cos", "dot_axes": [1, 1], "output_shape": null, "concat_axis": -1, "name": "merge_3", "output_mask_type": "raw", "output_shape_type": "raw", "arguments": {}, "mode_type": "raw", "output_mask": null}, "class_name": "Merge", "name": "merge_3", "inbound_nodes": [[["merge_1", 0, 0], ["merge_2", 0, 0]]]}], "name": "model_1", "output_layers": [["merge_3", 0, 0]], "input_layers": [["input_1", 0, 0], ["input_2", 0, 0], ["input_3", 0, 0], ["input_4", 0, 0]]}, "class_name": "Model", "keras_version": "1.2.1"}